static_arr/7DB63379-B519-465C-8FDD-F8A138F4BAEA_jpg.npy (npy, 1664 bytes, 1 tensors)

array f4 [384]
000000 0f 52 93 3d f4 99 cc bb 98 36 67 bd b8 63 b7 3d
       0.07193386 -0.0062439386 -0.05644855 0.08954567
000010 de c0 80 bc df 9c 1b 3d 92 ef 43 3d 3d 63 f7 3c
       -0.015716966 0.0379914 0.047835894 0.030198688
000020 3c f3 19 bd e3 47 ad 3c 1a b0 96 bd 4e c0 3f 3d
       -0.037585482 0.021152442 -0.073578075 0.046814255
000030 72 8b e4 3c 47 24 a3 3d f2 93 27 3c 4d 19 8d bb
       0.027898524 0.07965904 0.010228144 -0.0043059946
000040 7e 13 15 bd 41 35 c6 bb ea 61 93 3c f7 a3 16 3d
       -0.036395542 -0.006048829 0.017991025 0.036777463
000050 89 0b 7f bc 75 0f 35 3d 5e fb 2e bd dd 47 11 bd
       -0.015566715 0.044204194 -0.04272019 -0.035468925
000060 d1 27 dc bb 17 04 6d bc b4 fd 10 bc 0f 47 50 bd
       -0.0067186137 -0.014466307 -0.00884955 -0.050849017
000070 1e ab cb b9 0c 43 cf bb 12 cc e7 bc f0 19 c5 bd
       -0.0003884667 -0.0063251313 -0.02829555 -0.09624088
000080 15 60 9a 3c 05 0e 9d 3d cf 4c 35 3c 2a 9a 8c bd
       0.018844644 0.0766869 0.011065676 -0.06865342
000090 ac dd c7 ba 6e 05 c3 bd df 86 c3 bc 8d 78 1f 3d
       -0.0015248558 -0.0952252 -0.023868022 0.038933326
0000a0 f6 d7 12 3d 93 ae 10 3c 82 98 e0 bb bf cf 3a bb
       0.035850488 0.008830684 -0.006854118 -0.0028505174
0000b0 77 6f b0 3c 4c 96 3a 3d 4a 99 44 3c 39 d8 4d 3d
       0.021537526 0.04555349 0.011999438 0.050255034
0000c0 38 c2 9f 3d de 16 b2 bd f4 81 75 bd 2d d0 80 3d
       0.07800716 -0.08695768 -0.059938386 0.062897064
0000d0 3b d9 85 bd 8e 77 4d 3d 3e cc 2c bd cd ab 41 3d
       -0.06535574 0.050162844 -0.042186968 0.047282983
0000e0 b2 d5 fa 3c f0 0b 3b bd 89 cf c0 bc 5b fa 37 bd
       0.030619476 -0.04566568 -0.02353646 -0.044916492
0000f0 7e d4 12 3d 9c e6 85 3d 22 77 4b bc 88 53 60 3d
       0.03584718 0.06538126 -0.01241854 0.05476716
000100 87 8d a0 3b a4 4d 64 3c 7d 92 8d 3c 82 15 47 bc
       0.004899684 0.013934527 0.017281765 -0.012151124
000110 31 23 1c 3d 76 46 50 3c f9 b5 9d 3c b3 bc 00 bb
       0.0381195 0.012712112 0.01925181 -0.0019643723
000120 14 c7 99 3b b2 be 3d bd cf 76 4e bc 21 f0 ad bd
       0.0046929214 -0.04632444 -0.012601568 -0.084930666
000130 d8 0b f3 3d a6 fb 61 3d fb ca de 3c d1 ba 62 3c
       0.118674934 0.05517163 0.027196398 0.013838486
000140 4e 86 31 bb 14 d3 39 3d 05 85 92 3d c8 f6 28 3d
       -0.0027088108 0.045367315 0.07154278 0.041250974
000150 b1 4d 1f bc ec fe 1c 3d 17 5f d6 bb 60 f6 a6 bc
       -0.009723113 0.03832905 -0.0065420973 -0.020381153
000160 8c b5 5a bd eb 13 70 bd fa cd 9d 3d 70 ce 73 3c
       -0.053395793 -0.058612745 0.077053025 0.0148807615
000170 a5 8c ed bc 6c e6 84 3d 83 1b 23 bd d1 42 49 3d
       -0.028997729 0.06489262 -0.03982116 0.049135987
000180 34 f0 4f 3c 2f 49 99 3d 18 7f 44 3c 0d 92 b1 3c
       0.012691546 0.07484662 0.011993192 0.021676088
000190 ac 5e a6 bc 70 bb 10 3c f3 66 bf bd 1f 25 04 3e
       -0.020308815 0.008833751 -0.09345808 0.12904786
0001a0 c2 af ef bc a9 32 59 bd a2 ba 9e 3d fb 3f a8 3c
       -0.029258613 -0.05302683 0.07750441 0.02053832
0001b0 51 c6 07 bd 20 65 06 3c a0 ac b2 3a a6 c2 84 bc
       -0.033148114 0.008202821 0.0013631769 -0.016206097
0001c0 99 ce cd bd 26 65 9a bb b4 9b 4a bd 1a c9 54 bd
       -0.10049171 -0.004711765 -0.049464896 -0.051949598
0001d0 4e 7b c1 3c cf 37 5b bd 24 74 50 3c 6c 44 83 3b
       0.023618367 -0.05352002 0.012723003 0.0040059593
0001e0 cf 5c 8d 3d a1 52 75 bc d5 78 90 bc 74 c9 ee ba
       0.069024675 -0.014973314 -0.017635742 -0.0018217997
0001f0 11 f4 ee 3b bd f5 02 be 24 6c b8 bc 2c 56 b3 89
       0.0072922786 -0.12789054 -0.022512503 -4.3173718e-33
000200 6c a0 ba bc 38 5a eb bc b0 c9 f8 3c 38 5a ca bc
       -0.022781573 -0.028729543 0.03036961 -0.024701223
000210 21 08 9b 3d af e3 fe 3c 6d a0 33 bd 70 04 6f 3d
       0.0756991 0.031114427 -0.043854166 0.05835384
000220 01 15 68 bd 8c c5 b7 3c 7f 3f be bc 07 37 d8 3a
       -0.056660656 0.022433065 -0.023223637 0.0016495892
000230 a4 fe 82 bd 3b a2 95 bc d2 65 82 bd af cc 85 bd
       -0.06396225 -0.018265834 -0.06367077 -0.06533181
000240 c6 30 9b bc cd fc db bc 5b fc 04 bd a6 ff 5a 3d
       -0.018944155 -0.026853943 -0.032467227 0.05346646
000250 89 f8 cd 3c 86 f2 14 3c a1 58 b8 3d b3 3b a9 3c
       0.025142925 0.009091025 0.090012796 0.02065835
000260 1d 3f 02 bd 72 9f 92 bd f3 b3 38 bd 1d bf 52 bd
       -0.03179847 -0.07159318 -0.045093488 -0.05145179
000270 54 61 55 bd 24 e8 f7 bb 60 b6 65 3d 9d 61 a4 bd
       -0.052094772 -0.007565515 0.05608213 -0.08026431
000280 06 39 9f 3c 10 89 7a 3d 05 ca 19 be 7a 5c 9c bd
       0.01943637 0.06116587 -0.1501847 -0.07634826
000290 38 58 a7 bd 4d 41 2d 3c af e5 ed 3c 78 15 69 3d
       -0.08171123 0.010574651 0.029040186 0.05690524
0002a0 f7 59 4d 3d 30 fb 57 3d 33 db 3b 3c 38 a0 93 3d
       0.050134625 0.052729785 0.011465835 0.07208294
0002b0 43 7f 43 3d 32 b1 23 3c 76 04 89 3c 13 9d 1e 3d
       0.047728788 0.009990977 0.01672576 0.038724016
0002c0 e4 ae f5 ba 01 1e 90 3d 36 98 b1 3d 1b 88 26 bd
       -0.0018744138 0.07036973 0.0867161 -0.040657144
0002d0 6e 42 4f 3d c9 3d ff bc 68 34 a0 bd 2d 04 70 bd
       0.05060046 -0.031157391 -0.07822496 -0.058597732
0002e0 ac 3e 7f bd 34 5d 08 bd 52 f5 50 bc 43 ba 32 3d
       -0.062315628 -0.03329201 -0.012753801 0.043634664
0002f0 a2 53 2a 3c 82 0c 29 bd c4 11 57 3d e9 c9 38 bd
       0.010395916 -0.041271694 0.052507177 -0.04511443
000300 de 7e 79 3d 59 5a 31 3c ac 4f 93 3d 1e bc 1d bd
       0.060912006 0.010824763 0.071929306 -0.03850948
000310 0c 9d 40 3d 5a 60 df 3c ff d6 b2 bc 6d f2 d8 3c
       0.04702477 0.027267624 -0.021831034 0.026482785
000320 63 42 c0 3d f5 07 c8 bd 6a d2 50 3c 37 38 31 bd
       0.09387662 -0.09767143 0.012745479 -0.0432665
000330 53 32 00 3d 1e 07 b3 3c 2f 4e 81 bd dd 2f 01 bd
       0.031297993 0.02185398 -0.063137405 -0.031539787
000340 c3 7c 02 3d b5 e8 5a bc f4 d6 7e 3d 3c 6b b2 3d
       0.031857263 -0.013361146 0.062216714 0.087118596
000350 8e 1a 6f bd 26 a9 89 3c 2f e3 c8 3a e5 d4 a4 3d
       -0.058374934 0.01680429 0.0015326495 0.08048419
000360 73 a3 f5 bc 8d 18 90 3d f0 13 9b 3c 2b 84 56 3d
       -0.029985165 0.07035933 0.018930405 0.05237214
000370 fd 0d 55 3d ed 7f 56 be d2 81 dc 3d dc e3 2e 09
       0.052015293 -0.20947237 0.10766949 2.1051627e-33
000380 ca bc f0 bc 1d 30 be bd 52 f6 63 bd 58 0e 31 bd
       -0.029386897 -0.09286521 -0.05565483 -0.04322657
000390 77 90 b0 bd c4 ea 43 3d 78 e1 af bc 61 24 0b 3d
       -0.086213045 0.04783131 -0.021469817 0.03397024
0003a0 15 8e 26 bd ba d1 c7 3d 75 73 8d 3d aa 63 94 3d
       -0.040662844 0.09756799 0.06906787 0.07245572
0003b0 1a 2c 85 3d 87 85 b3 3c 2a 40 6c bd a9 1b b7 3d
       0.06502552 0.021914257 -0.05767838 0.08940823
0003c0 ae e1 d4 bd de dc 15 3d 2c 67 44 3d 47 a4 d6 3c
       -0.103946075 0.03658759 0.047949955 0.02620138
0003d0 92 b7 93 bd c4 c0 65 3d f4 1f 18 3c c2 0c 8f 3c
       -0.07212748 0.05609204 0.009284962 0.017462138
0003e0 4a 55 2d 3d 2c 35 22 3a 8b a2 f6 bc ed 99 e3 3c
       0.042317666 0.0006187733 -0.030106803 0.027783358
0003f0 da 72 fb bb dc da 43 be 12 d8 c0 bb 28 18 13 bd
       -0.0076736035 -0.19126457 -0.0058851326 -0.03591171
