static_arr/B4CDCFA1-2127-42E4-A685-2D9E1B1E2A13_jpg.npy (npy, 1664 bytes, 1 tensors)

array f4 [384]
0.062372174 -0.031329967 -0.033630315 0.021079995 -0.090574674 0.06513297 0.049886916 0.062610075
-0.014700492 -0.0144935 -0.030145543 0.05377628 -0.011750658 0.08313458 0.014749652 0.047968358
-0.04132155 -0.004268427 0.044222932 0.0542617 0.0096700555 0.0057890164 0.034361698 -0.034153093
-0.025395691 -0.008391033 -0.04325293 -0.105164595 0.016449189 0.016746426 0.022157725 -0.035530426
-0.049862493 0.044709656 -0.031253733 -0.08435921 -0.08333616 0.033075 -0.011258634 0.050899763
0.003409718 -0.026192077 -0.018555501 -0.0109557295 -0.058559094 0.02434003 0.0336834 -0.016743593
0.060580507 -0.045544315 -0.012348311 0.055698913 -0.061818365 0.019569539 0.008774628 -0.010236598
0.00826612 -0.0037323746 0.029885363 -0.0010366518 0.04141708 0.1228899 0.08648882 0.03485349
0.06913478 0.021332467 -0.02257378 0.007717398 0.04530316 -0.02002639 -0.0011571487 -0.0020877828
-0.06833293 0.0010214117 -0.037494205 -0.08294733 0.14336686 0.051968526 0.014573089 0.021523364
-0.011462822 0.020138234 0.059964675 -0.013402573 -0.05968686 0.017862746 0.06583029 0.049217626
-0.03517415 -0.047325157 0.07100565 0.026512805 0.04149741 0.041442 0.0037676198 0.005652412
-0.053749043 -0.0022980734 -0.06824891 0.035356864 -0.03700271 0.023406848 0.0016089252 0.078553915
-0.045812164 0.03587487 0.034067817 -0.01826021 -0.07483699 0.016464617 0.029657882 -0.050083976
-0.08265709 0.0829733 0.07249113 -0.033827987 0.07703758 0.0036461474 0.05003227 -0.067830645
0.04620293 -0.050960682 0.02229268 -0.019555315 -0.0613259 -0.048971474 0.009266686 -5.978843e-33
0.024815073 -0.079758495 0.0030010047 0.02945257 0.027323302 0.026986822 0.0113158375 0.062975064
-0.049137723 0.041727208 -0.06478361 -0.0775026 -0.044800952 -0.034669306 -0.09374056 -0.05918286
0.027819095 -0.009713358 -0.08278476 0.06756503 0.08766389 0.105344966 0.13405052 0.04330304
0.025128806 -0.11128525 -0.025879152 -0.065694205 -0.05571456 -0.039354805 -0.01677208 -0.0543166
0.013140999 -0.08334732 -0.051170487 -0.10064327 -0.021189123 0.050442163 -0.052147876 0.021002095
0.017868198 -0.009226543 0.008282314 0.013630399 -0.025073012 -0.0064996514 0.0025826416 0.06870036
0.0231891 0.053790484 0.032058466 -0.03848589 -0.07032032 -0.029697675 -0.0727552 -0.02942517
-0.023377897 -0.078346446 -0.0011078832 0.038233157 0.012805442 -0.072623484 -0.008693758 -0.025265718
0.010149952 -0.14664361 0.075349115 -0.025906246 0.016974041 -0.029815143 -0.060577344 0.063279875
0.023259288 -0.06808857 0.046393093 -0.085488684 -0.028735667 0.00532465 -0.10781073 0.018769328
0.044943493 -0.0024541763 0.057769176 -0.037422985 -0.019078352 0.0951947 -0.044681095 0.08257484
-0.050417915 0.10006708 -0.04406884 0.08410185 0.043979693 -0.091859475 0.09024154 3.3724048e-33
-0.09263296 -0.099018104 -0.040544756 -0.00021118962 0.042837333 0.030842075 0.066275194 -0.032268476
-0.08897064 0.08639761 0.007798977 0.048339594 0.06300283 0.034319736 0.005450393 0.036414653
-0.10919593 -0.011350261 0.04954035 0.06154784 -0.015488078 -0.004013589 -0.087959364 0.0040641148
0.040920544 0.062304683 0.028142093 0.032287195 -0.0009875187 -0.13802439 0.024615701 0.0044015865
00000000: f779 7f3d da53 00bd f1bf 09bd f4af ac3c
00000010: 377f b9bd 6f64 853d 3956 4c3d b639 803d
00000020: 55da 70bc 2576 6dbc c9f3 f6bc 8444 5c3d
00000030: d585 40bc 7642 aa3d 86a8 713c 787a 443d
00000040: c940 29bd 29de 8bbb 1b23 353d 8441 5e3d
00000050: 276f 1e3c cab1 bd3b dabe 0c3d 1de4 0bbd
00000060: a00a d0bc 8b7a 09bc fc29 31bd 8960 d7bd
00000070: 73c0 863c cd2f 893c 1e84 b53c 5a88 11bd
00000080: 9d3c 4cbd 7921 373d ea03 00bd 86c4 acbd
00000090: 26ac aabd a779 073d 2276 38bc 457c 503d
000000a0: 9375 5f3b c490 d6bc b501 98bc a97f 33bc
000000b0: a9db 6fbd be64 c73c 9bf7 093d dc29 89bc
000000c0: 4423 783d ad8c 3abd 9250 4abc 8b24 643d
000000d0: 4135 7dbd 4c50 a03c 75c3 0f3c 67b7 27bc
000000e0: 9f6e 073c db9a 74bb 26d2 f43c 43e0 87ba
000000f0: f5a4 293d b3ad fb3d 0d21 b13d 88c2 0e3d
00000100: 8996 8d3d 6dc1 ae3c a6ec b8bc 3ae2 fc3b
00000110: ce8f 393d 620e a4bc 78ab 97ba 2fd3 08bb
00000120: 23f2 8bbd e4e0 853a 8693 19bd 4ae0 a9bd
00000130: c3ce 123e f3dc 543d f7c3 6e3c c451 b03c
00000140: 8fce 3bbc f0f8 a43c 859d 753d 7796 5bbc
00000150: 357a 74bd e554 923c 08d2 863d 6c98 493d
00000160: c512 10bd 06d8 41bd 696b 913d 6231 d93c
00000170: 30f9 293d 16bf 293d 2cea 763b de37 b93b
00000180: f527 5cbd 469b 16bb 16c6 8bbd 5cd2 103d
00000190: 2790 17bd b8bf bf3c 92e2 d23a e0e0 a03d
000001a0: 89a5 3bbd 87f1 123d b28a 0b3d 7096 95bc
000001b0: 2344 99bd cee0 863c 16f5 f23c db24 4dbd
000001c0: 1f48 a9bd e8ed a93d 3b76 943d 378f 0abd
000001d0: e1c5 9d3d 34f4 6e3b a3ee 4c3d cbea 8abd
000001e0: 493f 3d3d 26bc 50bd 239f b63c 7832 a0bc
000001f0: de30 7bbd 5096 48bd 4cd3 173c f759 f889
00000200: fb48 cb3c 6c58 a3bd 81ac 443b 8446 f13c
00000210: 1ed5 df3c 7813 dd3c 1066 393c 12f9 803d
00000220: a344 49bd 26ea 2a3d 45ad 84bd afb9 9ebd
00000230: 3481 37bd 6701 0ebd 0dfb bfbd ba69 72bd
00000240: dfe4 e33c c724 1fbc 0e8b a9bd 895f 8a3d
00000250: 2089 b33d 1abf d73d 8a44 093e 875e 313d
00000260: edda cd3c 85e9 e3bd 8400 d4bc af8a 86bd
00000270: f334 64bd 8132 21bd 9a65 89bc 157b 5ebd
00000280: 584d 573c 00b2 aabd 2598 51bd 0f1e cebd
00000290: d094 adbc 719c 4e3d 0399 55bd 960c ac3c
000002a0: 5460 923c ed2a 17bc 8bb2 073c 0952 5f3c
000002b0: eb65 cdbc 07fb d4bb 8941 293b c6b2 8c3d
000002c0: 11f7 bd3c 6953 5c3d bd4f 033d 61a3 1dbd
000002d0: 1a04 90bd 8a48 f3bc ae00 95bd 0e0d f1bc
000002e0: 0183 bfbc 1a74 a0bd 6436 91ba 5f9a 1c3d
000002f0: ebcd 513c 9fbb 94bd 4470 0ebc 0dfa cebc
00000300: fc4b 263c be29 16be a350 9a3d 5639 d4bc
00000310: 250d 8b3c e33e f4bc f31f 78bd e198 813d
00000320: 438a be3c 0572 8bbd af06 3e3d b114 afbd
00000330: 1067 ebbc 677a ae3b dfcb dcbd 22c2 993c
00000340: ab16 383d 3fd6 20bb 5f9f 6c3d d848 19bd
00000350: 344a 9cbc 70f5 c23d 8603 37bd ff1c a93d
00000360: 0483 4ebd f8ef cc3d 8781 34bd 973d ac3d
00000370: 0d24 343d d220 bcbd 8ed0 b83d 8f15 8c09
00000380: 59b6 bdbd 01ca cabd 4212 26bd c872 5db9
00000390: 3376 2f3d 85a8 fc3c 4abb 873d f32b 04bd
000003a0: 3d36 b6bd 3bf1 b03d 908e ff3b bdff 453d
000003b0: a107 813d da92 0c3d 3699 b23b 8827 153d
000003c0: 1ea2 dfbd 72f6 39bc d2ea 4a3d 9619 7c3d
000003d0: b5c1 7dbc 6d84 83bb 0a24 b4bd 442c 853b
000003e0: 4d9c 273d 3233 7f3d 3f8a e63c 943f 043d
000003f0: a16f 81ba 4456 0dbe dea6 c93c 2f3b 903b
